…
243, cls_pw=0.631, obj=0.301, obj_pw=0.911, iou_t=0.2, anchor_t=2.91, fl_gamma=0.0, hsv_h=0.0138, hsv_s=0.664, hsv_v=0.464, degrees=0.373, translate=0.245, scale=0.898, shear=0.602, perspective=0.0, flipud=0.00856, fliplr=0.5, mosaic=1.0, mixup=0.243\n","Downloading https://github.com/ultralytics/yolov3/releases/download/v9.1/yolov3.pt to yolov3.pt...\n","100% 118M/118M [00:01<00:00, 108MB/s]\n","\n","Overriding model.yaml nc=80 with nc=11\n","\n","                 from  n    params  module                                  arguments                     \n","  0                -1  1       928  models.common.Conv                      [3, 32, 3, 1]                 \n","  1                -1  1     18560  models.common.Conv                      [32, 64, 3, 2]                \n","  2                -1  1     20672  models.common.Bottleneck                [64, 64]                      \n","  3                -1  1     73984  models.common.Conv                      [64, 128, 3, 2]               \n","  4                -1  2    164608  models.common.Bottleneck                [128, 128]                    \n","  5                -1  1    295424  models.common.Conv                      [128, 256, 3, 2]              \n","  6                -1  8   2627584  models.common.Bottleneck                [256, 256]                    \n","  7                -1  1   1180672  models.common.Conv                      [256, 512, 3, 2]              \n","  8                -1  8  10498048  models.common.Bottleneck                [512, 512]                    \n","  9                -1  1   4720640  models.common.Conv                      [512, 1024, 3, 2]             \n"," 10                -1  4  20983808  models.common.Bottleneck                [1024, 1024]                  \n"," 11                -1  1   5245952  models.common.Bottleneck                [1024, 1024, False]           \n"," 12                -1  1    525312  models.common.Conv                      [1024, 512, [1, 1]]           \n"," 13                -1  1   4720640  models.common.Conv                      [512, 1024, 3, 1]             \n"," 14                -1  1    525312  models.common.Conv                      [1024, 512, 1, 1]             \n"," 15                -1  1   4720640  models.common.Conv                      [512, 1024, 3, 1]             \n"," 16                -2  1    131584  models.common.Conv                      [512, 256, 1, 1]              \n"," 17                -1  1         0  torch.nn.modules.upsampling.Upsample    [None, 2, 'nearest']          \n"," 18           [-1, 8]  1         0  models.common.Concat                    [1]                           \n"," 19                -1  1   1377792  models.common.Bottleneck                [768, 512, False]             \n"," 20                -1  1   1312256  models.common.Bottleneck                [512, 512, False]             \n"," 21                -1  1    131584  models.common.Conv                      [512, 256, 1, 1]              \n"," 22                -1  1   1180672  models.common.Conv                      [256, 512, 3, 1]              \n"," 23                -2  1     33024  models.common.Conv                      [256, 128, 1, 1]              \n"," 24                -1  1         0  torch.nn.modules.upsampling.Upsample    [None, 2, 'nearest']          \n"," 25           [-1, 6]  1         0  models.common.Concat                    [1]                           \n"," 26                -1  1    344832  models.common.Bottleneck                [384, 256, False]             \n"," 27                -1  2    656896  models.common.Bottleneck                [256, 256, False]             \n"," 28      [27, 22, 15]  1     86160  models.yolo.Detect                      [11, [[10, 13, 16, 30, 33, 23], [30, 61, 62, 45, 59, 119], [116, 90, 156, 198, 373, 326]], [256, 512, 1024]]\n","Model Summary: 333 layers, 61577584 parameters, 61577584 gradients, 155.2 GFLOPS\n","\n","Transferred 434/440 items from yolov3.pt\n","Scaled weight_decay = 0.00036\n","Optimize
…
